titanic.pth (torch, 3144 bytes, 5 tensors)

dense0.weight f4 [7, 12]
000000 f2 69 d8 ad 86 22 45 82 ec bd 05 80 77 7a 24 80
       -2.4603406e-11 -1.4483182e-37 -5.27309e-40 -3.35001e-39
000010 dd 9c 35 00 a0 de 2f 00 58 6c 19 00 f6 75 39 80
       4.923553e-39 4.396131e-39 2.334754e-39 -5.27694e-39
000020 10 6d 2d 00 7a 41 0e 00 73 28 4b 00 5d c5 30 00
       4.171722e-39 1.309186e-39 6.902173e-39 4.478904e-39
000030 c1 5f 94 3d 1b 00 61 be 3b 82 25 be 73 18 df 3d
       0.07244826 -0.21972696 -0.1616296 0.10893335
000040 dd e2 20 3f be 85 07 3f 82 71 2e bf 79 9c 77 3f
       0.62846166 0.5293845 -0.6814195 0.96723133
000050 1f 15 67 bf e2 8e b8 3d a9 11 48 3e 2d 46 ad bd
       -0.90266603 0.09011628 0.19537987 -0.084606506
000060 e3 63 90 3c 07 09 de 3d 40 e0 6e 3e e2 f3 69 3c
       0.017625755 0.108415656 0.23327732 0.014279338
000070 1e bf e5 be 9b a9 d9 bd 03 1f 05 3f 0f f2 69 bf
       -0.44872373 -0.10628053 0.52000445 -0.9138498
000080 ba b7 68 3f 1a 47 8e 3c bd 53 8e be a9 f1 17 3e
       0.90905344 0.017367888 -0.27798262 0.1483828
000090 87 08 d7 3c 71 ea 24 3e cb 5e 2c bc 0e f2 a6 3c
       0.026249183 0.16105057 -0.010520647 0.020379093
0000a0 cc 7c ca 3e dc 68 93 3f 39 17 40 bf 28 ed fe 3e
       0.39548337 1.1516376 -0.75035435 0.4979031
0000b0 50 e3 88 be 47 e0 fc be 36 b3 20 3f 3a c3 90 3e
       -0.26735926 -0.4938986 0.62773454 0.28273946
0000c0 01 59 5d 3b fa ae da 3e 3c be 87 3e 50 a6 38 3d
       0.0033774974 0.42711622 0.26512325 0.045080483
0000d0 01 81 06 bf 20 ab 06 bd 66 fa 0f 3f 45 53 62 bf
       -0.52540594 -0.03287804 0.5624145 -0.8840831
0000e0 dc c7 77 3f 94 ff 00 be 37 c7 6a bd cd d0 44 3e
       0.96789336 -0.12597495 -0.057318892 0.19220276
0000f0 2c 63 af 3d f6 35 e6 be 7a 01 0c be 63 e3 8e bd
       0.085638374 -0.44963044 -0.13672438 -0.06976964
000100 48 1a 3e bf 3c 59 1c 3e 55 2c cf 3e c9 f0 13 bf
       -0.7425885 0.15268415 0.4046351 -0.57789284
000110 ac e5 bc 3e dd c6 3f 3e 6e 02 99 be 04 ec 0d bd
       0.36893976 0.18728204 -0.29884666 -0.03464891
000120 ea 0b 25 be 40 a0 b0 be 96 4e f3 3e 02 da b2 bb
       -0.16117826 -0.3449726 0.47520894 -0.0054581175
000130 75 68 22 3e ad c9 39 3f f0 0b 69 3e 83 be e3 be
       0.1586016 0.7257336 0.2275846 -0.44481286
000140 07 33 95 3f 3c dc 6b 3f ee 7a 1e bf 63 b5 9b 3e
       1.1656197 0.92132926 -0.61906326 0.30411825

dense0.bias f4 [7]
000000 28 0f 04 80 65 b8 57 3e bf 22 91 3d b5 e7 b4 3e
       -3.72779e-40 0.21066435 0.070867054 0.35333028
000010 3f cd 26 bc ab 62 97 3d 7c b9 38 3f
       -0.01018077 0.07391866 0.72158027

dense1.weight f4 [7, 7]
000000 ef 12 20 2d 90 ff 87 3e f5 6e ab be f9 23 0f 3e
       9.099151e-12 0.26562166 -0.3348309 0.13978566
000010 c8 51 d8 be aa 99 1f be d9 1c 92 3f 5c 9c 00 b0
       -0.42249894 -0.15585962 1.1415054 -4.678833e-10
000020 57 79 17 be e9 11 4c 3e ac 5b 13 3e 9b 43 c6 3e
       -0.14792381 0.19928707 0.14390439 0.38723454
000030 81 5c d1 3d 86 a3 69 bf 38 95 1a 80 46 7c e2 a8
       0.10222722 -0.9126514 -2.441253e-39 -2.5144935e-14
000040 90 31 01 80 23 7a ed ac cc df 0d 00 49 d3 27 00
       -1.09615e-40 -6.749505e-12 1.274145e-39 3.657379e-39
000050 ab 92 0e 80 ac e1 9a 2f 2e 00 f3 3d 45 3d 56 be
       -1.338311e-39 2.8172786e-10 0.11865269 -0.2092181
000060 fe e2 d7 3d 67 4a 9f bd a3 11 a8 be 08 9a 95 3f
       0.10541342 -0.07777863 -0.32825956 1.1687632
000070 ee 1a 5e a1 87 62 bc bd 82 4d 53 3e 4e ca 94 3d
       -7.5252167e-19 -0.0919848 0.20635036 0.07265149
000080 82 7a af 3e ef 76 46 3e 03 5b 43 bf 04 74 48 80
       0.34273154 0.19381307 -0.7631075 -6.653774e-39
000090 9c 74 49 b9 9f a1 72 b0 3a 54 0f b9 36 9c dc b5
       -0.00019212294 -8.8268765e-10 -0.0001366892 -1.6436741e-06
0000a0 1d c0 6b b2 c7 04 27 00 23 17 3e a5 1f 48 9b bd
       -1.3722482e-08 3.583298e-39 -1.6487712e-16 -0.075821154
0000b0 70 dc 52 3e 71 45 6b 3c ec 45 c8 3e 5e 77 2c 3e
       0.20591903 0.014359818 0.39115846 0.1684241
0000c0 8e d4 55 bf
       -0.8352746

dense1.bias f4 [7]
000000 1b af 79 3e 2c 5f 80 3e 2b 78 3c 9f 7a ef 09 3f
       0.24383204 0.2507261 -3.990995e-20 0.5388104
000010 3e cd 8e 3d 08 12 0c aa ab 8e 10 3e
       0.069727406 -1.2440754e-13 0.14116924

dense2.weight f4 [1, 7]
000000 20 e7 25 3f 59 78 17 bf 14 89 4e 09 24 eb 78 3f
       0.64805794 -0.5916801 2.4860802e-33 0.97233796
000010 1f ee 85 be d3 f7 71 ba 70 78 9b be
       -0.26158234 -0.0009230349 -0.30365324
